…
2020-12-17 19:31:00.543003: W tensorflow/core/kernels/gpu_utils.cc:49] Failed to allocate memory for convolution redzone checking; skipping this check. This is benign and only means that we won't check cudnn for out-of-bounds reads and writes. This message will only be printed once.
Epoch 2/100
5/5 [==============================] - 0s 63ms/step - loss: 0.2410
Epoch 3/100
5/5 [==============================] - 0s 44ms/step - loss: 0.1559
Epoch 4/100
5/5 [==============================] - 0s 45ms/step - loss: 0.0983
Epoch 5/100
Epoch 100/100
5/5 [==============================] - 0s 41ms/step - loss: 0.0806
Model: "sequential"
_________________________________________________________________
Layer (type)                 Output Shape              Param #   
=================================================================
random_crop (RandomCrop)     (None, 100, 100, 1)       0         
_________________________________________________________________
resizing (Resizing)          (None, 224, 224, 1)       0         
_________________________________________________________________
input_1 (InputLayer)         multiple                  0         
_________________________________________________________________
conv2d (Conv2D)              (None, 224, 224, 1)       5         
_________________________________________________________________
conv2d_1 (Conv2D)            (None, 112, 112, 32)      160       
_________________________________________________________________
conv2d_2 (Conv2D)            (None, 56, 56, 64)        8256      
_________________________________________________________________
conv2d_3 (Conv2D)            (None, 28, 28, 128)       32896     
_________________________________________________________________
conv2d_transpose (Conv2DTran (None, 56, 56, 128)       65664     
_________________________________________________________________
conv2d_transpose_1 (Conv2DTr (None, 112, 112, 64)      32832     
_________________________________________________________________
conv2d_transpose_2 (Conv2DTr (None, 224, 224, 2)       514       
=================================================================
Total params: 140,327
Trainable params: 140,327
Non-trainable params: 0
_________________________________________________________________
None

Process finished with exit code 0
