…
4/4 [==============================] - 2s 385ms/step - loss: 0.0737
Epoch 7/10
4/4 [==============================] - 2s 376ms/step - loss: 0.0734
Epoch 8/10
4/4 [==============================] - 2s 376ms/step - loss: 0.0810
Epoch 9/10
4/4 [==============================] - 2s 381ms/step - loss: 0.0840
Epoch 10/10
4/4 [==============================] - 2s 388ms/step - loss: 0.0830
Model: "sequential_1"
_________________________________________________________________
Layer (type)                 Output Shape              Param #   
=================================================================
conv2d (Conv2D)              (None, 224, 224, 1)       5         
_________________________________________________________________
conv2d_1 (Conv2D)            (None, 112, 112, 32)      160       
_________________________________________________________________
conv2d_2 (Conv2D)            (None, 56, 56, 64)        8256      
_________________________________________________________________
conv2d_3 (Conv2D)            (None, 28, 28, 128)       32896     
_________________________________________________________________
conv2d_transpose (Conv2DTran (None, 56, 56, 128)       65664     
_________________________________________________________________
conv2d_transpose_1 (Conv2DTr (None, 112, 112, 64)      32832     
_________________________________________________________________
conv2d_transpose_2 (Conv2DTr (None, 224, 224, 2)       514       
=================================================================
Total params: 140,327
Trainable params: 140,327
Non-trainable params: 0
_________________________________________________________________
None

Process finished with exit code 0
