…
5/5 [==============================] - 0s 59ms/step - loss: 0.2714
(256, 224, 224)
Epoch 3/100
5/5 [==============================] - 0s 55ms/step - loss: 0.1677
(256, 224, 224)
Epoch 99/100
5/5 [==============================] - 0s 54ms/step - loss: 0.0986
(256, 224, 224)
Epoch 100/100
5/5 [==============================] - 0s 47ms/step - loss: 0.0979
(256, 224, 224)
Model: "sequential"
_________________________________________________________________
Layer (type)                 Output Shape              Param #   
=================================================================
random_flip (RandomFlip)     (None, 224, 224, 1)       0         
_________________________________________________________________
random_crop (RandomCrop)     (None, 100, 100, 1)       0         
_________________________________________________________________
resizing (Resizing)          (None, 224, 224, 1)       0         
_________________________________________________________________
random_rotation (RandomRotat (None, 224, 224, 1)       0         
_________________________________________________________________
input_1 (InputLayer)         multiple                  0         
_________________________________________________________________
conv2d (Conv2D)              (None, 224, 224, 1)       5         
_________________________________________________________________
conv2d_1 (Conv2D)            (None, 112, 112, 32)      160       
_________________________________________________________________
conv2d_2 (Conv2D)            (None, 56, 56, 64)        8256      
_________________________________________________________________
conv2d_3 (Conv2D)            (None, 28, 28, 128)       32896     
_________________________________________________________________
conv2d_transpose (Conv2DTran (None, 56, 56, 128)       65664     
_________________________________________________________________
conv2d_transpose_1 (Conv2DTr (None, 112, 112, 64)      32832     
_________________________________________________________________
conv2d_transpose_2 (Conv2DTr (None, 224, 224, 2)       514       
=================================================================
Total params: 140,327
Trainable params: 140,327
Non-trainable params: 0
_________________________________________________________________
None

Process finished with exit code 0
